output/unet_tgs_salt.pth (torch, 482007 bytes, 25 tensors)

weight f4 [16, 3, 3, 3]
-0.4022955 -0.057394166 0.019049982 -0.3759443 -0.23124541 0.042557802 -0.17101192 0.08584958
0.046277024 -0.36182708 -0.16085371 0.244888 -0.043176506 -0.12115574 0.22212215 -0.18387172
0.050059877 0.27780932 -0.07929235 0.033623304 0.09150838 0.06469678 -0.004872562 0.33591104
-0.054395933 0.19450496 0.23120934 0.1661133 -0.09592704 0.20695487 0.029723166 0.2538726
-0.026622847 0.20344657 0.28616753 0.20211433 0.07606161 -0.20968209 -0.166235 -0.24569204
-0.2033331 -0.12570839 -0.11031814 0.069706365 -0.14560115 -0.061457556 -0.16160838 -0.035295177
-0.012274785 0.05052933 -0.057255864 -0.21209773 0.15509236 -0.111580715 0.106935106 0.31625232
0.23422858 -0.117239036 0.112703666 0.1367385 0.01133165 -0.19482526 -0.2074894 -0.21499525
0.14370488 0.16788204 0.10356348 -0.030079678 0.17666525 0.08872921 -0.14724578 -0.23425493
-0.15482143 -0.01975236 0.22843403 -0.05716567 -0.23452869 0.05294599 0.1229993 -0.29534903
-0.28831685 0.11639552 -0.19005364 0.049158897 0.10267719 -0.20320375 -0.24391602 -0.23220964
0.03155034 -0.03245972 -0.013898246 -0.16154724 -0.11972724 -0.16967958 -0.15862647 -0.19540171
0.074679755 -0.17804515 0.013804362 -0.0027305793 -0.06757983 -0.18913156 -0.053219724 -0.19674869
-0.05064631 0.10248397 0.024048312 0.18680549 0.08350562 0.079705685 -0.21563135 -0.04668387
-0.007711386 -0.013039422 0.001916213 -0.03653861 0.07096259 0.15295427 -0.048666723 0.13848957
-0.115792535 0.09259536 -0.06836268 0.019558119 0.12508985 -0.0015896665 -0.04956727 -0.12255031
0.09043094 -0.114002414 -0.22270796 -0.083062306 0.08557112 0.01666415 0.16139741 -0.10482862
-0.21506697 0.32764664 -0.2965678 -0.10027293 0.1444252 0.03602217 -0.33483672 -0.114497475
-0.16921508 -0.043614734 0.3342645 -0.068584815 0.16773897 0.028175246 -0.20385374 -0.089226075
-0.1769256 -0.16771151 -0.11689212 0.23693517 0.08091658 0.13689356 0.23864424 0.047308255
-0.20988302 0.021673445 0.14159644 0.04136997 -0.17501858 -0.09409959 -0.13071968 0.16191754
0.007391544 -0.048612528 0.05061514 0.16485336 -0.042589366 -0.059534617 -0.040330157 0.12154484
-0.0010369652 -0.0067420313 0.156118 -0.06759208 0.006511852 -0.024657713 -0.17822942 -0.1823396
-0.05318403 0.09861574 -0.05165243 0.043786984 -0.0061172512 -0.07507792 -0.095157444 -0.037879728
-0.010158256 -0.03784972 -0.18989325 -0.086874224 0.11195156 -0.015259741 -0.17470127 0.0775313
0.1751483 -0.0013189493 -0.13000606 0.041696448 -0.11205606 -0.15661713 -0.12618458 -0.029977366
-0.017260613 -0.11723002 0.00404031 0.056089103 -0.0009338246 -0.11359583 -0.15074511 0.04768264
0.09031475 -0.042069506 -0.1592176 -0.24109966 -0.20592274 0.017444568 -0.12839966 -0.19406533
0.068038344 -0.06827539 0.1515127 -0.16468956 0.12834738 0.15460518 0.031420432 -0.17758465
-0.0153805 -0.051887177 -0.121817164 -0.21366866 -0.14326231 -0.04617067 -0.06306876 0.029315554
-0.05631334 -0.19813217 -0.05337191 -0.14932862 -0.010572733 -0.28775388 -0.11269633 -0.2944332
-0.0904197 -0.146411 -0.006862102 0.031360563 0.12309335 0.03830488 0.023731891 -0.15368754
00000000: adf9 cdbe 2516 6bbd b50e 9c3c c57b c0be
00000010: 99cb 6cbe 1751 2e3d c01d 2fbe e8d1 af3d
00000020: fa8c 3d3d 6641 b9be d6b6 24be ebc3 7a3e
00000030: d9d9 30bd 8020 f8bd fd73 633e de48 3cbe
00000040: 960b 4d3d 063d 8e3e 0764 a2bd 97b8 093d
00000050: bf68 bb3d bf7f 843d 03aa 9fbb 88fc ab3e
00000060: 45ce 5ebd 4f2c 473e 24c2 6c3e 9b19 2a3e
00000070: 6575 c4bd faeb 533e ff7d f33c 97fb 813e
00000080: 2818 dabc 4c54 503e 8d84 923e 0ff7 4e3e
00000090: 30c6 9b3d e7b6 56be 8239 2abe b296 7bbe
000000a0: 8d36 50be b3b9 00be 7aee e1bd 36c2 8e3d
000000b0: 7818 15be ebba 7bbd ab7c 25be ad91 10bd
000000c0: 2e1c 49bc d8f7 4e3d 2085 6abd 2630 59be
000000d0: 88d0 1e3e 6e84 e4bd cb00 db3d d3eb a13e
000000e0: 9ed9 6f3e 051b f0bd 2ed1 e63d 2d05 0c3e
000000f0: 63a8 393c 4680 47be 1a78 54be b727 5cbe
00000100: 5f27 133e 45e9 2b3e 1719 d43d a869 f6bc
00000110: bce7 343e a9b7 b53d 99c7 16be 86e0 6fbe
00000120: 8289 1ebe b4cf a1bc 9cea 693e 8d26 6abd
00000130: 4a28 70be e5dd 583d 0fe7 fb3d fd37 97be
00000140: 449e 93be c660 ee3d 6c9d 42be d75a 493d
00000150: 6b48 d23d a514 50be 1fc5 79be 5dc8 6dbe
00000160: ee3a 013d 7cf4 04bd 78b5 63bc a46c 25be
00000170: 8e33 f5bd 7cc0 2dbe fa6e 22be 6317 48be
00000180: b3f1 983d 7851 36be b12b 623c 85f3 32bb
00000190: 4b67 8abd b4ab 41be edfc 59bd 7d78 49be
000001a0: 8172 4fbd 1ee3 d13d f700 c53c f049 3f3e
000001b0: ff04 ab3d bc3c a33d 77ce 5cbe 9637 3fbd
000001c0: cbaf fcbb 4da3 55bc 7029 fb3a 82a9 15bd
000001d0: d654 913d 0ba0 1c3e c256 47bd 36d0 0d3e
000001e0: a324 edbd a3a2 bd3d bc01 8cbd 5938 a03c
000001f0: 8e17 003e 5b5c d0ba 0d07 4bbd a8fb fabd
00000200: db33 b93d 197a e9bd 8e0d 64be 921c aabd
00000210: e93f af3d 4183 883c 5d45 253e 63b0 d6bd
00000220: 843a 5cbe 4dc1 a73e bcd7 97be e55b cdbd
00000230: 33e4 133e fc8b 133d b86f abbe a77d eabd
00000240: b846 2dbe 5da5 32bd b724 ab3e 3276 8cbd
00000250: c4c3 2b3e c6cf e63c 09bf 50be 29bc b6bd
00000260: fc2b 35be 91bc 2bbe 2365 efbd 229f 723e
00000270: 98b7 a53d d32d 0c3e 285f 743e 4dc6 413d
00000280: 93eb 56be 828c b13c a8fe 103e 8f73 293d
00000290: 1238 33be 49b7 c0bd 61db 05be b6cd 253e
000002a0: c434 f23b ee1d 47bd d251 4f3d 52cf 283e
000002b0: 3072 2ebd 92da 73bd 3c31 25bd 80ec f83d
000002c0: c7ea 87ba 42ec dcbb 66dd 1f3e b76d 8abd
000002d0: 6061 d53b f9fe c9bc c681 36be 3bb7 3abe
000002e0: 7fd7 59bd 0df7 c93d 8091 53bd fb59 333d
000002f0: 3973 c8bb 74c2 99bd e8e1 c2bd c627 1bbd
00000300: d06e 26bc 4f08 1bbd 6073 42be 1deb b1bd
00000310: dc46 e53d fe03 7abc e4e4 32be bbc8 9e3d
00000320: 135a 333e 98e0 acba 4f20 05be e5c9 2a3d
00000330: a67d e5bd 3e60 20be 8836 01be 1893 f5bc
00000340: 2166 8dbc 4b16 f0bd 9464 843b b0bd 653d
00000350: e8cb 74ba eea4 e8bd ed5c 1abe df4e 433d
00000360: f1f6 b83d 1351 2cbd f009 23be d4e2 76be
00000370: 69dd 52be e9e7 8e3c 337b 03be 10b9 46be
00000380: b057 8b3d f8d3 8bbd 2526 1b3e 61a4 28be
00000390: 7f6d 033e d250 1e3e b6b2 003d c0d8 35be
000003a0: 7efe 7bbc a687 54bd 477b f9bd f5cb 5abe
000003b0: 5bb3 12be 751d 3dbd 322a 81bd 2c27 f03c
000003c0: d1a8 66bd 29e3 4abe 819c 5abd 9ae9 18be
000003d0: 4239 2dbc 7a54 93be 55cd e6bd f3bf 96be
000003e0: f72d b9bd c4ec 15be 7cdb e0bb ef73 003d
000003f0: 5e18 fc3d 94e5 1c3d 6269 c23c 4460 1dbe

bias f4 [16]
-0.01953255 0.05639294 0.016765894 0.049559686 -0.15575561 -0.011190615 -0.17899837 -0.0713094
0.13501738 0.07403789 0.011999818 -0.27521485 0.100803085 0.016973624 0.0037905124 -0.06249715
00000000: ba02 a0bc 49fc 663d a158 893c 19ff 4a3d
00000010: 667e 1fbe d758 37bc 594b 37be aa0a 92bd
00000020: ff41 0a3e 2da1 973d e29a 443c f6e8 8cbe
00000030: d971 ce3d 450c 8b3c 3f6a 783b 03fd 7fbd

weight f4 [16, 16, 3, 3]
-0.16385062 -0.09405591 -0.18530571 -0.14140451 -0.12733199 -0.18120608 -0.17643659 -0.2734266
-0.43769822 0.013965704 -0.045210164 0.0010907791 -0.032997236 0.0010080097 -0.049330384 -0.027374737
-0.028855719 -0.10907731 0.27086088 0.19037507 -0.03134212 0.15014768 0.012410555 0.071480475
0.15787175 0.03557705 0.24914826 -0.14060634 0.01348343 0.018610332 -0.055934895 -0.13529374
0.053027507 -0.09781044 -0.0292481 -0.044487163 0.013342997 -0.04811152 0.07897891 0.04604016
-0.041596197 0.10742677 0.001994549 0.033464834 -0.057438157 0.050770584 0.027317481 -0.15822473
-0.016467812 0.04777455 -0.053857658 0.07906761 0.09492479 -0.001248616 -0.02704174 -0.07054608
0.043717775 0.006207204 0.02727607 0.016397374 0.027294518 -0.034063853 0.033028193 -0.038415086
0.010358244 -0.022710215 0.06619122 -0.03753131 -0.011631727 0.029117614 0.015824448 -0.023427418
0.027118001 -0.0680286 0.025234738 0.083652504 0.0135601815 0.08568105 0.033004086 -0.014734386
-0.043173183 -0.13037276 -0.082857125 -0.074596055 -0.12486134 -0.1093179 0.0031479467 0.0064205937
-0.06940554 -0.021023346 0.056723733 0.032092698 0.059569594 -0.10759938 -0.02370392 0.05877284
0.039486278 0.028061766 -0.03154361 0.029761298 0.03415346 -0.12447397 0.0057427273 -0.03035423
-0.01873419 0.028612621 -0.015785618 -0.032972742 -0.080143526 -0.028119726 0.07245589 -0.035450548
-0.039127577 0.042230707 -0.095366105 0.01750343 0.10017163 -0.17602369 0.04246767 0.039944876
-0.13740008 0.049301494 -0.00013359339 -0.026078489 0.028427763 0.040091306 -0.06858693 -0.0700316
-0.06050719 0.07100919 0.07607319 -0.0015081015 -0.060091116 0.055316392 -0.006740937 -0.08548717
-0.066398725 -0.15826096 -0.089775585 -0.08880423 -0.046556264 -0.12611043 -0.111514695 -0.07517036
-0.10389441 -0.10253506 0.29726806 -0.35509863 -0.032620955 0.4762098 -0.23908368 0.14569126
0.58601916 0.044405438 -0.08581021 0.038077317 0.070424385 -0.06705258 0.055760294 0.084733136
-0.014051917 -0.020250594 0.4155184 0.29991844 0.20963228 0.2727009 0.18858573 0.27798885
0.16992773 -0.00544527 0.27230424 -0.05769321 -0.04477314 -0.054121282 -0.052971207 0.106230095
0.09382269 0.1139026 0.16362146 0.029842012 -0.004227942 -0.08843357 -0.06010764 -0.07326283
-0.033224102 -0.10436908 -0.015807737 0.044701204 0.016090494 0.20207947 0.17526041 0.23112321
0.0013666803 -0.061436076 0.19788176 -0.4066708 -0.21777736 0.42056045 0.065485746 0.008579264
0.021126939 0.009270378 0.017916342 0.067068495 0.02499863 -0.0144791 -0.009444621 0.083065405
-0.03514623 -0.03789392 0.018054932 0.0033132634 0.0702382 -0.0747804 0.017104756 0.030592453
0.0051429207 -0.041183975 0.09007669 -0.014606751 0.021786164 0.052341405 -0.03192549 0.03635054
0.08185076 0.055182725 -0.039325822 -0.06632826 0.009901434 0.11152138 0.067297995 0.014491614
0.06978292 0.02891874 -0.025965072 -0.06489748 0.025253022 0.025195569 -0.014137122 -0.1449793
0.16216278 0.10589059 -0.114423655 0.034612764 -0.03133649 -0.06837928 0.03918611 -0.05822326
-0.026080275 -0.086958066 -0.10656375 -0.12017008 -0.06897934 -0.06616325 0.037995648 0.08045972
00000000: 75c8 27be 63a0 c0bd c8c0 3dbe 58cc 10be
00000010: 5163 02be 168e 39be cbab 34be 92fe 8bbe
00000020: fb19 e0be 68d0 643c 4b2e 39bd 79f8 8e3a
00000030: 1c28 07bd 311f 843a a80e 4abd fc40 e0bc
00000040: d462 ecbc ed63 dfbd 47ae 8a3e aff1 423e
00000050: 9860 00bd 50c0 193e a455 4b3c 5b64 923d
00000060: 22a9 213e 3eb9 113d b920 7f3e 1cfb 0fbe
00000070: 9be9 5c3c b274 983c fd1b 65bd 718a 0abe
00000080: 5f33 593d d750 c8bd b699 efbc 2c38 36bd
00000090: 969c 5a3c 9610 45bd b2bf a13d 9b94 3c3d
000000a0: c660 2abd 9102 dc3d fbb6 023b 6c12 093d
000000b0: 4644 6bbd d1f4 4f3d e9c8 df3c aa05 22be
000000c0: 81e7 86bc 3faf 433d d999 5cbd 33ee a13d
000000d0: ee67 c23d 9aa8 a3ba a486 ddbc 777a 90bd
000000e0: 6911 333d cd65 cb3b 1172 df3c c953 863c
000000f0: c198 df3c 8a86 0bbd 9248 073d 2359 1dbd
00000100: a0b5 293c c60a babc 438f 873d 6eba 19bd
00000110: 0093 3ebc 1088 ee3c 46a2 813c dbea bfbc
00000120: 9226 de3c 9452 8bbd 15b9 ce3c 0152 ab3d
00000130: 862b 5e3c 8c79 af3d 4b2f 073d 7e68 71bc
00000140: 5dd6 30bd 7080 05be ffb0 a9bd d1c5 98bd
00000150: 4db7 ffbd 10e2 dfbd c84d 4e3b d863 d23b
00000160: 7e24 8ebd 2739 acbc 2557 683d a273 033d
00000170: 3fff 733d 105d dcbd b92e c2bc cabb 703d
00000180: 5dbc 213d cae1 e53c df33 01bd f7cd f33c
00000190: 80e4 0b3d 35ec febd 7d2d bc3b 6fa9 f8bc
000001a0: 7278 99bc 0465 ea3c d750 81bc 6d0e 07bd
000001b0: 4a22 a4bd 575b e6bc c163 943d 9834 11bd
000001c0: 3d44 20bd 1bfa 2c3d 4e4f c3bd 5a63 8f3c
000001d0: c926 cd3d 8e3f 34be 94f2 2d3d 3d9d 233d
000001e0: 9bb2 0cbe 5df0 493d 3415 0cb9 8ea2 d5bc
000001f0: 57e1 e83c c836 243d 4e77 8cbd ba6c 8fbd
00000200: 63d6 77bd 446d 913d 43cc 9b3d 7dab c5ba
00000210: 1a22 76bd 7193 623d 14e3 dcbb e613 afbd
00000220: 0efc 87bd 290f 22be 43dc b7bd fede b5bd
00000230: c8b1 3ebd 1823 01be d161 e4bd ebf2 99bd
00000240: 98c6 d4bd e7fd d1bd 8533 983e 7dcf b5be
00000250: 8d9d 05bd c5d1 f33e 5ad2 74be 1730 153e
00000260: 5a05 163f 7ae2 353d 43bd afbd f6f6 1b3d
00000270: a93a 903d dd52 89bd e864 643d 9188 ad3d
00000280: 033a 66bc 93e4 a5bc d4be d43e e98e 993e
00000290: d8a9 563e 749f 8b3e 9e1c 413e 8e54 8e3e
000002a0: 8901 2e3e 3c6e b2bb 766b 8b3e b74f 6cbd
000002b0: 0a64 37bd 47ae 5dbd 56f8 58bd 2a8f d93d
000002c0: 1c26 c03d c445 e93d 628c 273e 3c77 f43c
000002d0: 8c8a 8abb a91c b5bd 6e33 76bd d30a 96bd
000002e0: ff15 08bd 75bf d5bd 3a7f 81bc 9c18 373d
000002f0: 36d0 833c eced 4e3e 7777 333e 90ab 6c3e
00000300: 2e22 b33a 65a4 7bbd 84a1 4a3e 2837 d0be
00000310: 0701 5fbe b353 d73e 641d 863d 0b90 0c3c
00000320: 6712 ad3c c9e2 173c 4bc5 923c 355b 893d
00000330: edc9 cc3c bf39 6dbc 9dbd 1abc 321e aa3d
00000340: 7ef5 0fbd a836 1bbd f0e7 933c 5623 593b
00000350: 0cd9 8f3d 7726 99bd 461f 8c3c 069d fa3c
00000360: f285 a83b 87b0 28bd 217a b83d 2751 6fbc
00000370: e678 b23c f163 563d 4dc4 02bd 4ee4 143d
00000380: 5fa1 a73d 4807 623d 1d14 21bd 1cd7 87bd
00000390: a039 223c 5265 e43d 88d3 893d 3c6e 6d3c
000003a0: 59ea 8e3d fee6 ec3c b4b4 d4bc f8e8 84bd
000003b0: 6ddf ce3c f066 ce3c 639f 67bc 7475 14be
000003c0: 000e 263e 2add d83d f356 eabd 1dc6 0d3d
000003d0: b15a 00bd 700a 8cbd 9d81 203d 837b 6ebd
000003e0: 4da6 d5bc 1217 b2bd 183e dabd bb1b f6bd
000003f0: 0a45 8dbd 9980 87bd 53a1 1b3d 11c8 a43d

bias f4 [16]
0.028539946 -0.064653456 -0.031195369 0.017195364 -0.054773767 0.017468208 -0.0023720306 0.06055363
0.014972183 0.002346377 0.0009743975 -0.061138444 -0.047629133 -0.040286466 0.029761408 -0.006554997
00000000: 9bcc e93c 0869 84bd 6e8d ffbc 4bdd 8c3c
00000010: 755a 60bd 7d19 8f3c 1274 1bbb 1507 783d
00000020: e34d 753c acc5 193b b66e 7f3a 4e6c 7abd
00000030: c416 43bd 6c03 25bd 32ce f33c 4dcb d6bb

weight f4 [32, 16, 3, 3]
0.008949306 -0.016139774 -0.07577341 -0.092639126 -0.048815332 0.041761916 -0.113254435 -0.037041035
-0.06758817 -0.17461045 -0.15800576 -0.07445107 -0.13821006 -0.06258284 -0.03498264 -0.14454706
-0.061789315 -0.18668115 0.029636001 -0.004579713 0.026714394 0.051963728 0.06972477 -0.011772031
-0.048759 -0.0027504482 -0.048562396 -0.10837088 -0.109935895 -0.055087097 -0.10401661 -0.12354373
-0.102081 -0.11885139 -0.098999485 -0.066076055 -0.014008189 -0.123455875 -0.042406 -0.09298508
-0.117562495 -0.13600995 -0.045575384 -0.020252999 -0.082515486 0.0019131996 -0.098193295 -0.06498047
-0.061860826 -0.09826745 -0.07429285 -0.17757037 -0.11310162 -0.16811985 -0.12273939 -0.050154142
-0.039672863 -0.0319068 -0.11956309 0.008672887 -0.06847748 -0.16260827 -0.11535957 -0.11611045
-0.026401961 -0.05307387 -0.042946946 -0.02650837 -0.019839916 -0.03393489 -0.057295516 -0.083769105
-0.032641117 -0.015714485 0.03516002 -0.110247724 -0.0962038 0.03402082 -0.095687 0.011414254
-0.015734 0.024888467 -0.056522995 -0.14338882 -0.12550767 -0.14667246 -0.06558794 -0.061603658
-0.15713623 -0.18098985 -0.021838685 -0.00805173 -0.09918121 -0.052579522 -0.0065868506 -0.1305188
-0.10646547 -0.13529825 -0.13324188 -0.01047993 -0.06330864 -0.05962869 0.018294172 0.061353307
-0.017605254 0.053651147 -0.07130758 0.064559475 -0.09104169 -0.009242678 -0.16570728 -0.011729311
-0.1433392 -0.08158684 -0.012982385 -0.1589519 -0.13826914 -0.06582366 -0.07393989 -0.0026159456
-0.061634973 0.012379391 -0.101795755 0.010663294 -0.10003181 -0.12345074 0.06400595 -0.10488214
-0.08510517 0.029676761 -0.020919548 -0.07522624 -0.08545017 -0.034548964 0.0076357834 -0.0012702063
0.034905206 -0.010857868 -0.047869552 0.022990681 -0.08998836 0.054717835 0.007450037 0.026897633
0.04803004 0.0006796397 0.036971767 0.05712 -0.027130695 0.0033950694 -0.011771816 0.01505345
0.049017616 -0.15419057 -0.15565874 -0.117453724 -0.13041882 -0.15180027 -0.059109915 -0.1076548
-0.13267788 -0.093004175 0.012930871 -0.11971391 -0.017005235 -0.12697579 0.020833174 0.013748872
0.014081118 0.0023652585 -0.09320534 -0.10335883 -0.10814717 0.01704962 0.042793915 -0.008917573
-0.027843937 -0.066170715 -0.07017278 -0.10996246 -0.090864405 -0.076819584 -0.110277034 0.014943747
-0.09415015 0.00574474 -0.036686637 -0.051388837 -0.07633304 0.02573846 0.04132843 0.012137845
-0.09532551 -0.057220556 -0.014369002 0.013792903 0.03720518 0.010632324 -0.018962154 0.021940647
-0.1035623 -0.112007 -0.06146688 -0.030717922 -0.025399925 -0.007905394 -0.11876868 -0.07591068
-0.03890267 -0.04754241 -0.07705393 -0.0687512 -0.072897516 -0.06181758 0.02099543 0.08948755
0.04873339 -0.055154346 -0.06621305 0.04512182 -0.053879596 0.053945158 -0.1148712 -0.109738484
0.020184278 -0.1281467 -0.06838254 -0.14454022 -0.0474106 -0.072096184 -0.1189418 -0.08812996
-0.14742133 -0.07713423 -0.1456407 -0.03555354 -0.15787531 -0.1582024 -0.020058345 -0.094895
-0.16129264 -0.078039855 -0.09897018 0.09469718 0.07667643 0.046987727 0.09706371 -0.033809222
-0.0057786345 0.035235833 0.08254107 0.012827571 -0.120946266 -0.1410276 -0.08976037 -0.11110665
00000000: 1ca0 123c 8f37 84bc 172f 9bbd 95b9 bdbd
00000010: 96f2 47bd 8b0e 2b3d f1f1 e7bd 57b8 17bd
00000020: ab6b 8abd 15cd 32be 43cc 21be cd79 98bd
00000030: f086 0dbe 6f2b 80bd f549 0fbd 2504 14be
00000040: cb16 7dbd 5829 3fbe 33c7 f23c 6b11 96bb
00000050: 25d8 da3c ebd7 543d dccb 8e3d 7adf 40bc
00000060: 84b7 47bd dd40 34bb 5de9 46bd 8df1 ddbd
00000070: 1226 e1bd 02a3 61bd a906 d5bd 7f04 fdbd
00000080: d80f d1bd 5c68 f3bd 3ec0 cabd e252 87bd
00000090: 9a82 65bc 6fd6 fcbd eab1 2dbd f66e bebd
000000a0: 9bc4 f0bd 3146 0bbe 41ad 3abd 9ee9 a5bc
000000b0: e1fd a8bd 53c4 fa3a 9119 c9bd 7b14 85bd
000000c0: c761 7dbd 7240 c9bd da26 98bd 02d5 35be
000000d0: d2a1 e7bd 9c27 2cbe ca5e fbbd 6e6e 4dbd
000000e0: 0380 22bd b4b0 02bd 7edd f4bd ba18 0e3c
000000f0: ec3d 8cbd c882 26be a341 ecbd 51cb edbd
00000100: ed48 d8bc fc63 59bd 23e9 2fbd 1528 d9bc
00000110: 5287 a2bc 50ff 0abd b4ae 6abd 238f abbd
00000120: b1b2 05bd aabb 80bc f403 103d 8fc9 e1bd
00000130: 7f06 c5bd 6a59 0b3d 8cf7 c3bd da02 3b3c
00000140: 97e4 80bc e6e2 cb3c a884 67bd 85d4 12be
00000150: 1585 00be 4e31 16be f852 86bd 1e54 7cbd
00000160: 52e8 20be 6755 39be 0be7 b2bc 67eb 03bc
00000170: 851f cbbd a05d 57bd 82d6 d7bb b8a6 05be
00000180: 910a dabd a08b 0abe 8f70 08be 03b4 2bbc
00000190: f6a7 81bd 373d 74bd a9dd 953c 9b4d 7b3d
000001a0: e538 90bc 4ec1 5b3d b509 92bd c237 843d
000001b0: 1174 babd 9a6e 17bc 2baf 29be 4c2c 40bc
000001c0: 83c7 12be 0017 a7bd 12b4 54bc 49c4 22be
000001d0: 6d96 0dbe 8ece 86bd cc6d 97bd 4970 2bbb
000001e0: f474 7cbd eed2 4a3c 4b7a d0bd 19b5 2e3c
000001f0: 7add ccbd bed3 fcbd 8d15 833d 73cc d6bd
00000200: 9f4b aebd ae1c f33c 795f abbc 3710 9abd
00000210: 8000 afbd 3783 0dbd 9835 fa3b 0d7d a6ba
00000220: c3f8 0e3d 33e5 31bc dd12 44bd f456 bc3c
00000230: d14b b8bd cf1f 603d 711f f43b 6d58 dc3c
00000240: 26bb 443d d929 323a b56f 173d a9f6 693d
00000250: 3141 debc d07f 5e3b 93de 40bc bfa2 763c
00000260: b2c6 483d 22e4 1dbe 0165 1fbe 948b f0bd
00000270: 838c 05be 8871 1bbe 3d1d 72bd 1f7a dcbd
00000280: b6dc 07be f978 bebd 01dc 533c 912c f5bd
00000290: 904e 8bbc f105 02be 55aa aa3c f342 613c
000002a0: 7db4 663c 7402 1b3b 71e2 bebd cbad d3bd
000002b0: 437c ddbd a5ab 8b3c ac48 2f3d 031b 12bc
000002c0: f818 e4bc 8384 87bd bfb6 8fbd 0034 e1bd
000002d0: 1e17 babd 9653 9dbd edd8 e1bd 9ed6 743c
000002e0: cbd1 c0bd 5f3e bc3b ba44 16bd 1a7d 52bd
000002f0: 7f54 9cbd 76d9 d23c 0048 293d d0dd 463c
00000300: 053a c3bd 1a60 6abd f66b 6bbc a1fb 613c
00000310: 7564 183d 3333 2e3c 8556 9bbc dfbc b33c
00000320: 7918 d4bd ed63 e5bd b2c4 7bbd 27a4 fbbc
00000330: 8113 d0bc a085 01bc fe3c f3bd 0f77 9bbd
00000340: 6858 1fbd d5bb 42bd 73ce 9dbd 6ecd 8cbd
00000350: 4b4b 95bd 6e34 7dbd 9cfe ab3c 4045 b73d
00000360: aa9c 473d 86e9 61bd b59a 87bd a8d1 383d
00000370: dab0 5cbd 99f5 5c3d 9741 ebbd 92be e0bd
00000380: 8059 a53c e338 03be 250c 8cbd 5a02 14be
00000390: 9e31 42bd 2aa7 93bd c297 f3bd 7b7d b4bd
000003a0: 9ef5 16be 8df8 9dbd d622 15be 97a0 11bd
000003b0: 11aa 21be cfff 21be 6651 a4bc 4f58 c2bd
000003c0: e629 25be 5cd3 9fbd e1b0 cabd 98f0 c13d
000003d0: 8808 9d3d 3476 403d 57c9 c63d 8a7b 0abd
000003e0: b35a bdbb 7353 103d 4b0b a93d bb2a 523c
000003f0: adb2 f7bd 8a69 10be 49d4 b7bd e28b e3bd

bias f4 [32]
0.0016407021 0.014450666 0.060552865 0.07263164 -0.08672057 -0.100405976 -0.22285606 -0.052852623
0.031278905 -0.08128081 -0.11219495 0.051000215 -0.08477757 -0.061379824 -0.110388435 0.035526507
0.043175876 -0.03616433 -0.0815617 -0.018552989 -0.08008229 -0.1371327 0.08821487 0.018684538
-0.015131513 -0.030977946 -0.048794404 -0.028034823 -0.05413522 -0.08710841 -0.081578635 0.0036654056
00000000: d40c d73a 7cc2 6c3c 4806 783d e6bf 943d
00000010: 8e9a b1bd a6a1 cdbd 6134 64be fe7b 58bd
00000020: 4f1e 003d 8e76 a6bd 77c6 e5bd 9ae5 503d
00000030: dd9f adbd 6969 7bbd 5513 e2bd 3e84 113d
00000040: 30d9 303d 0c21 14bd d209 a7bd 70fc 97bc
00000050: 2f02 a4bd 846c 0cbe ffa9 b43d 5110 993c
00000060: 2aea 77bc 76c5 fdbc a4dc 47bd 49a9 e5bc
00000070: e4bc 5dbd e565 b2bd b312 a7bd 4d37 703b

weight f4 [32, 32, 3, 3]
0.08515001 0.06433371 0.05675702 0.03575544 0.06837579 0.059647255 0.032428987 0.011984181
0.062117405 0.08886142 0.06029915 0.065357454 0.0503898 -0.015689261 0.095984526 0.051753864
0.024412569 0.021450602 -0.019974077 0.0052040373 0.09167124 -0.029843016 0.0034375188 0.07594363
0.023830006 0.027021468 0.031130316 0.007868213 0.033363167 0.0706956 0.038045444 -0.058348753
0.039058726 0.009092898 0.022134988 -0.024807872 -0.009491514 -0.056020044 -0.08307179 -0.057319753
-0.03963571 0.12539668 -0.042152412 -0.017141283 0.09035428 0.022666946 -0.0075782132 -0.021072507
-0.03624244 0.026317054 -0.021579163 -0.016133754 0.01863104 -0.019563068 -0.089540616 -0.060187217
-0.012242315 -0.09643616 0.028220305 0.042445637 -0.09074422 -0.003771455 -0.0058316262 -0.009756195
0.06557294 -0.013234672 -0.002751406 0.027639247 0.05362106 0.05623821 0.046182763 0.0062770355
0.022040617 0.028250307 -0.034628216 -0.0069610123 0.026726156 0.010682025 0.023929257 -0.007735462
0.019305492 0.004336632 -0.005252874 -0.06007364 -0.008788751 0.014797828 -0.038402367 0.030655047
0.043334797 -0.023352308 0.052660014 0.062399417 0.08858831 0.018249158 -0.0073076673 -0.0051194
0.09890862 -0.026930701 0.030860601 0.08282404 0.013014366 0.075760745 0.02421444 0.051897604
-0.015031187 0.14321801 0.05944905 0.0067995735 -0.0016639814 -0.045485467 -0.013024702 -0.087409966
-0.045550577 -0.013514832 0.02039769 -0.009356453 0.042029273 0.01470797 0.049615595 -0.022830104
-0.04132027 0.025476549 -0.03648895 -0.027230171 0.0019870223 -0.03664032 0.012172229 -0.059704576
-0.04030774 0.008949404 -0.08866632 0.00038188897 -0.01025462 -0.12355643 -0.042420473 0.08228305
0.011537275 0.03856243 0.004102887 -0.04401842 -0.0042407066 0.028000437 0.0717673 0.060761712
-0.05075643 -0.078628585 -0.02201714 -0.062392738 -0.041997477 -0.02606586 -0.05746353 -0.109937586
-0.06424115 -0.02478303 -0.061949436 -0.08022654 -0.036065426 -0.15415482 -0.123866595 -0.06587527
-0.18694876 -0.061173 0.005205393 -0.012343086 0.0037946522 0.03763303 -0.0058035315 0.018541483
-0.04734552 -0.022831509 0.022590917 0.042876363 -0.029920872 -0.0014813534 -0.05062944 -0.010490984
-0.0065505314 -0.072921775 -0.013695563 -0.06117623 -0.098596066 -0.11618382 -0.11383003 0.0022345053
-0.03705947 -0.08341872 -0.0867669 -0.054051172 0.0013396881 0.012224631 -0.032643944 -0.040570356
0.024063904 0.049000394 -0.035771478 0.0042499574 0.000497251 -0.011688889 0.09007217 0.03138152
0.012099629 -0.032695018 0.028691856 0.019250898 -0.007816215 -0.003719772 -0.03910128 0.025742633
0.013422968 -0.0024163872 -0.021857725 -0.008259965 -0.0026661512 0.036334097 -0.023289211 -0.023155624
0.061795652 0.05555778 0.018686015 0.036568727 0.025052505 -0.0080040265 -0.013409302 0.020836568
0.046654943 0.022411922 0.004911953 -0.022333924 -0.035692416 0.0105605675 0.024790537 0.0055027916
-0.0019405015 -0.039527502 0.037573755 0.067657985 0.081788115 0.05387212 0.03742378 0.08212399
0.034230847 -0.0056837415 0.06534609 0.0048591006 0.027543737 0.05070267 0.035940953 -0.03954872
-0.013504411 -0.033252332 0.055931065 0.0251036 -0.048526034 -0.014086278 -0.018626487 -0.041923106
00000000: 2163 ae3d 64c1 833d 0d7a 683d 4c74 123d
00000010: 9b08 8c3d ae50 743d 42d4 043d 4c59 443c
00000020: d26e 7e3d fafc b53d 3efc 763d 21da 853d
00000030: 8965 4e3d c486 80bc 8993 c43d dcfb 533d
00000040: defc c73c 2cb9 af3c ada0 a3bc a186 aa3b
00000050: 22be bb3d 5779 f4bc ff47 613b 5588 9b3d
00000060: 2537 c33c 205c dd3c 0105 ff3c ade9 003c
00000070: d1a7 083d dbc8 903d 8ad5 1b3d 1aff 6ebd
00000080: 0bfc 1f3d 61fa 143c 6f54 b53c e139 cbbc
00000090: 4c82 1bbc 4675 65bd 8b21 aabd 1ec8 6abd
000000a0: 0e59 22bd fd67 003e 02a8 2cbd e06b 8cbc
000000b0: aa0b b93d 08b0 b93c a952 f8bb 40a0 acbc
000000c0: f472 14bd dd96 d73c c9c6 b0bc ef2a 84bc
000000d0: 1fa0 983c ba42 a0bc 1261 b7bd df86 76bd
000000e0: fe93 48bc 5280 c5bd 452e e73c 7adb 2d3d
000000f0: 1bd8 b9bd 842a 77bb 3a17 bfbb 73d8 1fbc
00000100: 1b4b 863d 3dd6 58bc ef50 34bb b46b e23c
00000110: c2a1 5b3d 0a5a 663d 232a 3d3d 97af cd3b
00000120: 868e b43c 306d e73c 51d6 0dbd 3419 e4bb
00000130: d0f0 da3c a903 2f3c 4a07 c43c c279 fdbb
00000140: 8d26 9e3c 4e1a 8e3b 4d20 acbb c70f 76bd
00000150: b2fe 0fbc 9772 723c cd4b 1dbd 4b20 fb3c
00000160: d47f 313d 574d bfbc 07b2 573d 8896 7f3d
00000170: ca6d b53d 427f 953c 2875 efbb a4c0 a7bb
00000180: 9a90 ca3d c69d dcbc 5fcf fc3c a69f a93d
00000190: 353a 553c 7328 9b3d 5c5d c63c 9592 543d
000001a0: 5e45 76bc bea7 123e d980 733d f5ce de3b
000001b0: f319 daba f84e 3abd 8f65 55bc ff03 b3bd
000001c0: 3e93 3abd 506d 5dbc 0e19 a73c cf4b 19bc
000001d0: e326 2c3d b3f9 703c b939 4b3d 3306 bbbc
000001e0: 723f 29bd 32b4 d03c 7075 15bd cf11 dfbc
000001f0: b438 023b 2914 16bd 076e 473c c98c 74bd
00000200: bb19 25bd 85a0 123c b096 b5bd 4538 c839
00000210: fe02 28bc 270b fdbd 17c1 2dbd 0484 a83d
00000220: d706 3d3c a3f3 1d3d 8371 863b a94c 34bd
00000230: a0f5 8abb 2c61 e53c bcfa 923d 46e1 783d
00000240: f9e5 4fbd 0608 a1bd 4a5d b4bc 878f 7fbd
00000250: 8c05 2cbd 1288 d5bc e15e 6bbd f526 e1bd
00000260: dd90 83bd c805 cbbc b1be 7dbd d04d a4bd
00000270: 57b9 13bd c3da 1dbe c5ad fdbd 9de9 86bd
00000280: 7f6f 3fbe 8a90 7abd 0092 aa3b a83a 4abc
00000290: b3af 783b 1825 1a3d 8d2b bebb 4fe4 973c
000002a0: 60ed 41bd 2509 bbbc 9610 b93c 209f 2f3d
000002b0: 9e1c f5bc f929 c2ba d160 4fbd 60e2 2bbc
000002c0: d7a5 d6bb 0358 95bd 5b63 60bc ed93 7abd
000002d0: bcec c9bd c8f1 edbd b81f e9bd c770 123b
000002e0: accb 17bd 6fd7 aabd d8b2 b1bd c364 5dbd
000002f0: 7998 af3a d249 483c a8b5 05bd 1a2d 26bd
00000300: aa21 c53c a3b4 483d 1d85 12bd 3a43 8b3b
00000310: f359 023a c182 3fbc c277 b83d e989 003d
00000320: 863d 463c 36eb 05bd 2f0b eb3c 0fb4 9d3c
00000330: 950f 00bc 6bc7 73bb aa28 20bd 37e2 d23c
00000340: 02ec 5b3c 405c 1ebb f90e b3bc ce54 07bc
00000350: 98ba 2ebb 10d3 143d 04c9 bebc ddb0 bdbc
00000360: 701d 7d3d 8e90 633d 6a13 993c 17c9 153d
00000370: e93a cd3c 5223 03bc b0b2 5bbc 73b1 aa3c
00000380: 4119 3f3d 3599 b73c 73f4 a03b a2f5 b6bc
00000390: 3632 12bd 3b06 2d3c 8615 cb3c c350 b43b
000003a0: 6d58 feba 97e7 21bd f0e6 193d 4590 8a3d
000003b0: 8780 a73d 03a9 5c3d ad49 193d 9f30 a83d
000003c0: a535 0c3d ae3e babb 2cd4 853d 1739 9f3b
000003d0: 67a3 e13c 9aad 4f3d d236 133d d7fd 21bd
000003e0: 9b41 5dbc 9933 08bd f917 653d 11a6 cd3c
000003f0: 3cc3 46bd 22ca 66bc 9396 98bc 90b7 2bbd

bias f4 [32]
-0.043842204 -0.058512606 -0.022531338 0.019899685 -0.039295245 -0.08683699 0.017350413 0.053738132
-0.088844836 0.1039933 0.007230677 0.06234306 0.004968782 -0.053712383 0.04716942 0.020869607
0.014784691 -0.07121808 -0.012782956 -0.06611152 -0.034552302 -0.0138729075 -0.0055562723 -0.042881977
-0.02322094 -0.028213039 0.08125381 -0.017339693 -0.023430085 -0.030688785 0.01736457 -0.04186133
00000000: e293 33bd eaaa 6fbd a493 b8bc aa04 a33c
00000010: 0df4 20bd 98d7 b1bd 7422 8e3c 841c 5c3d
00000020: 48f4 b5bd 70fa d43d 51ef ec3b 705b 7f3d
00000030: 2ad1 a23b 8401 5cbd b934 413d bdf6 aa3c
00000040: 7d3b 723c c9da 91bd 9a6f 51bc 7a65 87bd
00000050: b786 0dbd 314b 63bc 6411 b6bb 03a5 2fbd
00000060: d739 bebc 081f e7bc 6668 a63d f90b 8ebc
00000070: 73f0 bfbc 0c67 fbbc 2540 8e3c c976 2bbd

weight f4 [64, 32, 3, 3]
0.02181169 0.008848726 0.033929486 0.019129833 -0.056283947 -0.004379334 0.029938933 -0.09078961
0.011984492 0.08896703 0.083789 -0.03050963 0.12506044 -0.009226779 0.087237135 0.053137828
0.11675481 0.026150648 0.0056183767 -0.018935623 0.014979883 -0.00083635515 -0.026439216 0.02945196
0.014321768 -0.012215525 0.012943794 0.0019349407 -0.09010283 -0.06732906 -0.01697036 -0.04723983
-0.06970081 0.006735359 0.011985496 -0.016370123 -0.00421191 -0.073158 0.040133543 8.656513e-05
-0.023972157 -0.08651246 -0.070428275 0.017579127 0.009482621 -0.014612322 0.021266554 0.016560828
0.011741399 -0.04895762 0.00084353803 0.040280584 0.03000414 -0.021503845 0.028679695 0.06392995
0.07526026 -0.039679326 0.06288643 0.059941575 -0.009532328 0.028426627 0.008663817 -0.0006411233
0.03833237 -0.0038589835 -0.06653984 0.0089689875 0.03313284 -0.047265776 -0.051145878 -0.07470259
-0.05224536 -0.07515809 -0.019637436 0.015896592 0.042726982 -0.03748102 -0.012270284 0.042242095
0.04696925 0.0011013949 -0.078584515 -0.11907437 -0.0148332035 -0.023845145 -0.13142054 0.007981422
-0.04331532 -0.1697805 -0.0191565 -0.06886412 -0.06343667 -0.021206886 -0.061020087 -0.013820692
-0.012406271 0.013781025 -0.051726982 -0.043059483 0.0029237512 -0.021851249 -0.006258378 0.013074086
-0.030699713 -0.008875463 -0.026568271 -0.012528806 0.0024963368 -0.021961764 -0.02491473 -0.073518984
0.02207116 -0.0016573529 -0.038076714 -0.01127569 -0.055549163 0.021633415 -0.044788487 0.021717057
-0.024349432 -0.004946621 -0.050345514 -0.063595235 -0.08943403 0.032041334 0.0060093803 -0.001833984
0.009956656 -0.04023351 0.012581314 -0.029648498 0.029912615 0.0075313514 -0.028121322 -0.09978804
-0.08014351 -0.018304529 -0.008676181 -0.019312462 0.014269602 -0.034079786 -0.016061148 0.013426083
0.01104437 -0.034300055 -0.07386359 0.033619493 -0.047422085 -0.0035596183 -0.052748453 0.03104198
-0.021689693 0.029834475 0.02069072 -0.06426356 -0.08487038 -0.08985866 -0.01886911 -0.032199834
0.000312586 -0.07353142 -0.03835094 -0.04785326 -0.020766385 0.04729292 -0.04144965 -0.005609673
0.052788068 -0.03527434 -0.0017289631 0.07955297 -0.017710421 0.0018978214 0.008229736 0.010624123
0.038582798 0.047942206 0.05210946 0.044526815 -0.06127795 -0.060592964 -0.01911195 -0.044170726
-0.020428888 0.0010047287 -0.010403548 -0.016970914 -0.069710225 -0.0031876552 -0.018761998 0.036216103
-0.07835077 -0.020432739 0.02952705 0.018147757 0.027688298 -0.06142979 0.037097782 -0.034607735
-0.018467173 -0.055412754 0.021330047 -0.048658196 0.031323142 -0.030881848 0.036155883 -0.035484586
-0.020789277 -0.013767901 -0.027076378 -0.0058143334 -0.05684122 -0.004792826 -0.023978239 0.0006791298
0.0069108135 -0.04978072 -0.0059900177 0.0161796 0.056668743 -0.013136901 -0.064174384 0.04011393
-0.037066635 0.027316468 -0.0845295 0.013549603 -0.07673676 -0.06202599 -0.0651081 -0.022012573
-0.08457082 -0.008786182 0.02253599 -0.0660544 -0.028038412 -0.062102713 -0.023723299 0.015755083
0.009005233 0.030440753 -0.023696352 -0.0027782063 -0.013524956 -0.03792474 0.0034607616 -0.016705954
-0.0015447595 -0.016624792 -0.048871115 -0.036470823 0.034361463 0.028484538 0.048477884 -0.03892399
00000000: 6eae b23c 3ffa 103c a5f9 0a3d 2bb6 9c3c
00000010: ff89 66bd 8480 8fbb 7e42 f53c e7ef b9bd
00000020: 9a5a 443c 5934 b63d 9199 ab3d 55ef f9bc
00000030: d80f 003e eb2b 17bc 62a9 b23d 0da7 593d
00000040: 251d ef3d e239 d63c 5c1a b83b e11e 9bbc
00000050: 2f6e 753c d83e 5bba 0e97 d8bc 3d45 f13c
00000060: d9a5 6a3c a023 48bc 3512 543c d69d fd3a
00000070: d587 b8bd d1e3 89bd 6d05 8bbc 8d7e 41bd
00000080: 4cbf 8ebd 49b4 dc3b d05e 443c a31a 86bc
00000090: 1004 8abb ddd3 95bd 1263 243d 4d8a b538
000000a0: 4261 c4bc 722d b1bd b33c 90bd 1a02 903c
000000b0: ff5c 1b3c 8568 6fbc 3237 ae3c 93aa 873c
000000c0: ff5e 403c c987 48bd e120 5d3a 41fd 243d
000000d0: 3ecb f53c d528 b0bc aef1 ea3c b5ed 823d
000000e0: 0d22 9a3d ca86 22bd 9aca 803d 4c85 753d
000000f0: 7b2d 1cbc f5de e83c aff2 0d3c 0e11 28ba
00000100: 6702 1d3d 00e7 7cbb 0a46 88bd a9f2 123c
00000110: 4db6 073d c299 41bd 577e 51bd acfd 98bd
00000120: 3bff 55bd 7cec 99bd b0de a0bc 9239 823c
00000130: 7d02 2f3d b385 19bd 4d09 49bc 0c06 2d3d
00000140: d462 403d ae5c 903a ebf0 a0bd 43dd f3bd
00000150: f706 73bc e556 c3bc 1b93 06be 83c4 023c
00000160: 686b 31bd f0da 2dbe 18ee 9cbc a208 8dbd
00000170: 16eb 81bd 10ba adbc 33f0 79bd 2f70 62bc
00000180: ac43 4bbc cfc9 613c acdf 53bd 245f 30bd
00000190: 689c 3f3b 6401 b3bc 1413 cdbb b134 563c
000001a0: f77d fbbc 646a 11bc b4a5 d9bc 9f45 4dbc
000001b0: 9599 233b 28e9 b3bc fa19 ccbc 1f91 96bd
000001c0: 94ce b43c 893b d9ba 54f6 1bbd acbd 38bc
000001d0: 8587 63bd 8f38 b13c 2274 37bd f8e7 b13c
000001e0: 7678 c7bc 4417 a2bb 1937 4ebd 383e 82bd
000001f0: 3029 b7bd c63d 033d 56ea c43b 4b62 f0ba
00000200: 3e21 233c e5cb 24bd db21 4e3c 68e1 f2bc
00000210: 4d0b f53c 8ec9 f63b b05e e6bc ac5d ccbd
00000220: 4822 a4bd 61f3 95bc 8a26 0ebc 2b35 9ebc
00000230: 0ccb 693c 3f97 0bbd ab92 83bc 13f9 5b3c
00000240: 72f3 343c 377e 0cbd cb45 97bd 98b4 093d
00000250: a93d 42bd 7c48 69bb c30e 58bd c04b fe3c
00000260: 95ae b1bc 6e67 f43c 967f a93c 9d9c 83bd
00000270: 86d0 adbd d107 b8bd 6493 9abc f9e3 03bd
00000280: 95e2 a339 a497 96bd e015 1dbd c801 44bd
00000290: 441e aabc 39b6 413d 1cc7 29bd 59d1 b7bb
000002a0: 4d38 583d d47b 10bd 609e e2ba abec a23d
000002b0: 7215 91bc 52c0 f83a 04d6 063c cd10 2e3c
000002c0: ff08 1e3d 0c5f 443d bb70 553d c061 363d
000002d0: 96fe 7abd 5430 78bd aa90 9cbc 5dec 34bd
000002e0: 7c5a a7bc 1ab1 833a a573 2abc 9606 8bbc
000002f0: 3cc4 8ebd fbe7 50bb c3b2 99bc 5657 143d
00000300: 5e76 a0bd 8f62 a7bc b6e2 f13c 9baa 943c
00000310: 92d2 e23c ce9d 7bbd d8f3 173d d7c0 0dbd
00000320: 7848 97bc 7cf8 62bd 5abc ae3c d14d 47bd
00000330: b24c 003d eefb fcbc 3118 143d 4958 11bd
00000340: 464e aabc c392 61bc 48cf ddbc 2a86 bebb
00000350: 57d2 68bd 230d 9dbb 036e c4bc a107 323a
00000360: 1b74 e23b dee6 4bbd e947 c4bb 158b 843c
00000370: 7c1d 683d 283c 57bc dc6d 83bd 814e 243d
00000380: 2fd3 17bd c9c6 df3c cd1d adbd 27ff 5d3c
00000390: 2a28 9dbd f70e 7ebd 6557 85bd b653 b4bc
000003a0: 7733 adbd ebf3 0fbc 669d b83c 8747 87bd
000003b0: d0b0 e5bc 6a5f 7ebd 5d57 c2bc ce10 813c
000003c0: af8a 133c e35e f93c da1e c2bc 9112 36bb
000003d0: c797 5dbc f956 1bbd f2cd 623b edda 88bc
000003e0: 8779 caba b730 88bc 142d 48bd 6e62 15bd
000003f0: 9bbe 0c3d 6858 e93c bf90 463d c36e 1fbd

bias f4 [64]
-0.04209346 -0.0017446802 -0.030374704 -0.008839314 -0.011057106 -0.08812029 -0.11312578 -0.087673835
-0.0034592177 -0.06865815 -0.019704726 -0.022187915 -0.049217768 0.016839508 -0.115540445 -0.016969904
0.016120268 -0.15165883 -0.08073675 -0.04445137 -0.15388708 -0.091113634 0.015406665 -0.016142271
-0.22120155 -0.07522722 -0.011979531 0.04522296 0.0054599666 -0.051343765 -0.003315425 -0.04384205
-0.026133308 -0.019398518 -0.047107216 0.01018743 -0.15563092 -0.14847323 -0.23885944 -0.0763469
-0.14928588 -0.0123803 -0.051930606 -0.10221885 -0.14511232 -0.12991558 0.047356457 -0.08485748
-0.18256663 -0.080399655 -0.056167647 -0.1154973 -0.058864187 -0.13166657 0.08756422 -0.11794648
-0.20279244 -0.23931536 -0.15878716 -0.031231163 0.022129746 -0.10420706 -0.002743982 -0.010122118
00000000: 316a 2cbd c1ad e4ba 5fd4 f8bc c5d2 10bc
00000010: dd28 35bc 6978 b4bd 7dae e7bd 578e b3bd
00000020: 0bb4 62bb a59c 8cbd ce6b a1bc 6ec3 b5bc
00000030: 9298 49bd 02f3 893c 78a0 ecbd 7804 8bbc
00000040: a70e 843c 744c 1bbe 4f59 a5bd a412 36bd
00000050: 9394 1dbe c999 babd 3d6c 7c3c cc3c 84bc
00000060: a982 62be bb10 9abd cb45 44bc b63b 393d
00000070: 85e9 b23b d74d 52bd 9a47 59bb b993 33bd
00000080: 8515 d6bc a4e9 9ebc 7ff3 40bd 2ee9 263c
00000090: b65d 1fbe 5e09 18be 9297 74be c35b 9cbd
000000a0: 66de 18be bed6 4abc 30b5 54bd 1e58 d1bd
000000b0: 5398 14be 9708 05be d8f8 413d c2c9 adbd
000000c0: bff2 3abe 93a8 a4bd 0c10 66bd d989 ecbd
000000d0: 931b 71bd 9ad3 06be df54 b33d ed8d f1bd
000000e0: d2a8 4fbe 160f 75be 1a99 22be 7fd8 ffbc
000000f0: 7149 b53c 836a d5bd 61d4 33bb 3dd7 25bc

weight f4 [64, 64, 3, 3]
0.09597229 0.046191603 0.054471903 -0.019399747 0.02165505 0.022841075 -0.08119469 -0.0075290445
-0.07475871 0.007538512 0.040828824 -0.035341784 -0.04862992 0.035312474 0.05004856 -0.047994062
0.03069944 -0.023818549 -0.033528008 0.055192944 -0.01015551 -0.0479248 0.015547092 -0.0038038315
-0.14196111 -0.09704694 0.016591894 -0.01035085 0.006887234 0.05017758 -0.026525702 0.03523834
0.011681761 -0.056511186 0.011533603 -0.04453743 0.01948378 0.05971096 0.016129348 0.052902788
0.009793119 -0.004525472 0.008748015 -0.037893884 -0.01094978 -0.049224384 -0.089300774 -0.052033227
-0.013697895 -0.06702406 -0.08258898 -0.0021040738 0.011884159 -0.047513228 0.020664297 0.014390922
0.03136369 0.044709805 0.023243912 0.09655321 0.0071271094 0.034502044 0.08285801 -0.048749797
0.020387877 -0.027114099 0.014080958 -0.046214867 -0.060287006 0.0035015766 -0.045853034 -0.07601287
-0.016880607 -0.028134076 0.04354399 0.041214913 -0.014322455 -0.0053569796 0.028021498 -0.012013497
-0.03924696 0.10008476 -0.016091906 -0.08461272 0.13034934 0.03718787 -0.020474212 0.3009355
0.15269747 0.0839147 0.10535476 0.08543191 0.10425512 0.022234444 0.0028362174 0.01152746
0.0030285283 0.013924687 0.031452972 0.006804658 0.029514316 0.038493767 -0.025681 0.021116903
-0.04239479 0.010863971 -0.039523434 -0.0139668435 0.218653 0.052709825 0.09582607 -0.021496482
-0.016805576 0.087745264 0.010995245 -0.032359276 -0.049288478 0.07599649 0.020286815 0.09573009
0.018748756 -0.0050391867 0.051450275 0.009903447 -0.05797957 0.018488372 0.007242231 0.116411075
0.22358052 -0.010105379 -0.011750151 0.13559054 -0.020759976 -0.02421592 -0.029466933 0.025928648
-0.020917222 -0.012519519 -0.041277956 -0.008867344 -0.032257058 -0.014561963 -0.049817257 -0.03496039
-0.11907201 -0.10482807 -0.19756 -0.015925849 -0.0666901 -0.064792275 -0.10865161 -0.08686889
-0.1247483 0.07477588 0.11613097 0.011826134 0.06813622 0.024779327 0.05253476 0.16161592
0.055067983 0.028468762 0.09775762 0.08010748 0.027827317 0.016897196 -0.019103123 0.024849912
-0.022132562 -0.03559835 -0.041557726 0.0066426094 -0.023735847 -0.0017057852 0.036675684 -0.0073848045
0.01848528 0.047250237 0.044196725 0.024004068 -0.012668186 -0.014586621 0.022106444 -0.057139967
-0.023101993 0.0024978807 -0.037359025 -0.01305822 -0.03845975 0.10997739 0.08244704 0.096751325
0.019271309 0.005262324 -0.01902655 -0.048961382 -0.057839464 -0.068475254 0.10490096 0.03021037
0.0646727 0.019128334 0.015865056 -0.017669996 -0.14483906 -0.122621 -0.07934801 0.010305011
0.031603087 0.034279544 -0.012097937 0.031894818 0.0071348967 -0.014241752 -0.030808555 -0.04898089
-0.18805309 -0.20255649 -0.12769087 -0.08130966 -0.11602559 -0.0971058 -0.11621337 -0.0745999
0.009377813 -0.21816307 0.033502772 -0.033683036 0.15782987 0.07788412 -0.008527019 0.22583088
0.1262735 0.15155336 0.034782548 0.00024338857 0.056051068 0.025782606 0.015007286 -0.03163904
0.00041393685 -0.027464163 -0.023112675 -0.14350523 -0.10526854 -0.15192786 -0.015773859 -0.029776225
0.01095863 0.10496668 -0.0004893334 0.0062595084 0.010260783 0.008545664 -0.023011828 0.04209001
00000000: 1f8d c43d 6833 3d3d ee1d 5f3d 38ec 9ebc
00000010: ee65 b13c 351d bb3c 6749 a6bd 34b6 f6bb
00000020: 181b 99bd 9f05 f73b 203c 273d 8cc2 10bd
00000030: 2b30 47bd d0a3 103d b8ff 4c3d 6c95 44bd
00000040: 647d fb3c 1e1f c3bc aa54 09bd ff11 623d
00000050: 4c63 26bc cc4c 44bd 3bb9 7e3c b449 79bb
00000060: 415e 11be 8cc0 c6bd b9eb 873c 9d96 29bc
00000070: 4eae e13b 0287 4d3d 6e4c d9bc 1456 103d
00000080: db64 3f3c 4678 67bd 70f7 3c3c e16c 36bd
00000090: 739c 9f3c 7b93 743d b221 843c 98b0 583d
000000a0: 5173 203c 694a 94bb d653 0f3c 9e36 1bbd
000000b0: b566 33bc 829f 49bd 53e3 b6bd cb20 55bd
000000c0: 236d 60bc e943 89bd 6924 a9bd 80e4 09bb
000000d0: c7b5 423c 3b9d 42bd 2c48 a93c e7c7 6b3c
000000e0: 3677 003d a121 373d 046a be3c b0bd c53d
000000f0: 878a e93b 0452 0d3d 76b1 a93d dead 47bd
00000100: 7a04 a73c 631e debc d2b3 663c cd4b 3dbd
00000110: 82ef 76bd b57a 653b 64d0 3bbd a3ac 9bbd
00000120: 3349 8abc 6f79 e6bc 2f5b 323d f8d0 283d
00000130: bba8 6abc 9a89 afbb 578d e53c 42d4 44bc
00000140: 6cc1 20bd 3df9 cc3d 2cd3 83bc 6f49 adbd
00000150: 4c7a 053e 4f52 183d 89b9 a7bc 3814 9a3e
00000160: ba5c 1c3e 78db ab3d 3dc4 d73d edf6 ae3d
00000170: b583 d53d 0225 b63c d5df 393b acdd 3c3c
00000180: 467a 463b 5f24 643c d5d4 003d 9cf9 de3b
00000190: 02c8 f13c a4ab 1d3d f660 d2bc 5bfd ac3c
000001a0: 29a6 2dbd ccfe 313c 53e3 21bd 30d5 64bc
000001b0: 92e6 5f3e 42e6 573d 7540 c43d 6419 b0bc
000001c0: d9ab 89bc cab3 b33d 6625 343c 298b 04bd
000001d0: b7e2 49bd 0ca4 9b3d 8930 a63c 230e c43d
000001e0: fe96 993c c31f a5bb 86bd 523d 1142 223c
000001f0: fc7b 6dbd ed74 973c 3d50 ed3b ee68 ee3d
00000200: 4bf2 643e 0891 25bc b583 40bc 3fd8 0a3e
00000210: d310 aabc 7760 c6bc a364 f1bc 5168 d43c
00000220: 985a abbc ab1e 4dbc 1313 29bd 5648 11bc
00000230: fa1f 04bd 4d95 6ebc 2e0d 4cbd a032 0fbd
00000240: 07dc f3bd 19b0 d6bd 2b4d 4abe ed76 82bc
00000250: d294 88bd d0b1 84bd bc84 debd 51e8 b1bd
00000260: 097c ffbd 1924 993d 13d6 ed3d 67c2 413c
00000270: 018b 8b3d 04fe ca3c b02e 573d a57e 253e
00000280: f78e 613d 5237 e93c 2635 c83d 640f a43d
00000290: 1df6 e33c fd6b 8a3c 277e 9cbc 0b92 cb3c
000002a0: 594f b5bc 93cf 11bd 6f38 2abd 3faa d93b
000002b0: ae71 c2bc a794 dfba 3e39 163d 3bfc f1bb
000002c0: 716e 973c 7789 413d a007 353d 2ea4 c43c
000002d0: 398e 4fbc b9fc 6ebc 9318 b53c 990b 6abd
000002e0: 6440 bdbc 7cb3 233b c705 19bd 25f2 55bc
000002f0: f987 1dbd d33b e13d fed9 a83d 8f25 c63d
00000300: ddde 9d3c 936f ac3b 91dd 9bbc bb8b 48bd
00000310: 13e9 6cbd c13c 8cbd 51d6 d63d bd7b f73c
00000320: 1f73 843d 06b3 9c3c 6ff7 813c abc0 90bc
00000330: b150 14be b820 fbbd 3681 a2bd 59d6 283c
00000340: 3d72 013d b568 0c3d 6d36 46bc 24a4 023d
00000350: dacb e93b 3d56 69bc 3962 fcbc 30a0 48bd
00000360: fd90 40be f86a 4fbe 65c1 02be ae85 a6bd
00000370: d39e edbd 68df c6bd 4601 eebd d5c7 98bd
00000380: 66a5 193c 2466 5fbe 343a 093d 39f7 09bd
00000390: 279e 213e b681 9f3d e9b4 0bbc 3640 673e
000003a0: d74d 013e ce30 1b3e 2578 0e3d 1f36 7f39
000003b0: ce95 653d 0b36 d33c 1fe1 753c f097 01bd
000003c0: aa05 d939 86fc e0bc cb56 bdbc 09f3 12be
000003d0: 0897 d7bd fa92 1bbe 2e38 81bc 45ed f3bc
000003e0: d38b 333c c5f8 d63d 9c46 00ba 901c cd3b
000003f0: d81c 283c 1d03 0c3c 4d83 bcbc 9366 2c3d

bias f4 [64]
-0.020115145 -0.030188574 -0.04119955 0.06318678 -0.028576085 0.043122817 -0.03460667 -0.05826287
-0.06452793 -0.007579267 0.05416601 -0.044733983 -0.015880095 0.05458088 -0.09698016 0.02871991
0.01444601 0.019934822 0.012441039 0.043553233 -0.008103997 0.06403104 0.021701459 0.021528633
0.027062321 0.026623107 -0.044475447 -0.124901265 -0.043301392 0.012310601 0.091274455 -0.023864446
-0.07344244 0.008957444 -0.0047620693 0.06363028 -0.031920705 -0.0013914806 0.009607089 -0.10146958
0.02481531 -0.0472715 -0.00697093 -0.029604355 0.05359847 0.02886847 0.054223046 0.090039305
-0.059272032 0.07899456 -0.020185107 -0.0113062505 -0.08194771 -0.011901632 0.016014917 -0.09326969
0.102788754 -0.03603107 -0.07913793 -0.0718613 -0.0656096 -0.029882744 0.010386196 -0.05496943
00000000: 84c8 a4bc 074e f7bc dcc0 28bd 1268 813d
00000010: 6518 eabc 8da1 303d b9bf 0dbd 0ca5 6ebd
00000020: 3827 84bd 805b f8bb 2edd 5d3d fb3a 37bd
00000030: f916 82bc 3390 5f3d 899d c6bd 0446 eb3c
00000040: f5ae 6c3c 5a4e a33c 80d5 4b3c e064 323d
00000050: a1c6 04bc b522 833d 42c7 b13c d15c b03c
00000060: cdb1 dd3c b418 da3c e32b 36bd 3ccc ffbd
00000070: cd5c 31bd 67b2 493c 1aee ba3d 5f7f c3bc
00000080: fd68 96bd 3ec2 123c 220b 9cbb 9850 823d
00000090: 49bf 02bd 5762 b6ba 0d67 1d3c 48cf cfbd
000000a0: 7a49 cb3c c39f 41bd 666c e4bb d584 f2bc
000000b0: 128a 5b3d 927d ec3c fc18 5e3d 8766 b83d
000000c0: 3bc7 72bd e6c7 a13d 3d5b a5bc da3d 39bc
000000d0: 33d4 a7bd 10ff 42bc b731 833c 2e04 bfbd
000000e0: e982 d23d 5195 13bd 1113 a2bd 042c 93bd
000000f0: 535e 86bd a8cc f4bc dd2a 2a3c a027 61bd

weight f4 [64, 32, 2, 2]
0.04801736 0.04405752 -0.07746603 -0.13289593 -0.13551413 0.034847002 -0.057584297 0.093543455
0.03126213 0.04802983 -0.08004226 -0.08500762 -0.041074425 -0.05754379 -0.016307553 -0.06890519
0.0019640105 -0.0041703763 0.06684072 -0.09819747 0.08340136 0.07349627 0.046670586 -0.0028584606
-0.09803151 -0.00021178467 -0.0038412085 -0.060676567 0.005469148 -0.015482936 0.0039911275 0.086534254
-0.03630867 0.058820546 0.058711395 0.024179729 0.008275878 -0.10405637 0.0946277 0.06261632
-0.032986466 -0.03702329 0.02277059 -0.13419567 -0.09790502 -0.08695495 -0.010703165 0.030026369
-0.02682427 0.00084288133 0.0017871739 0.14815904 0.12472953 0.014049658 0.015600358 -0.0693468
-0.023997473 0.0211099 0.018864783 0.092912786 -0.025926745 -0.12821075 0.13582252 -0.11793264
-0.07302286 0.04207261 0.050624665 0.1246883 -0.06723531 0.111044794 -0.07573503 -0.117788725
0.029074188 -0.09770588 -0.10364771 -0.105478644 -0.050596133 -0.096953884 0.029766388 0.11418777
-0.046201944 -0.19718802 -0.107110344 0.03200881 -0.037879515 -0.084303886 0.14054848 -0.00045750264
0.11823792 -0.050474003 -0.07388216 -0.050525095 -0.07137836 -0.054386012 0.046600055 0.010468836
-0.022607073 0.040990125 -0.042358033 -0.0018009553 -0.13503799 -0.042136926 -0.08728519 -0.26917502
-0.16218041 0.072695434 -0.026172088 0.106510475 0.018668054 -0.088560134 0.09716926 -0.02007138
-0.16043922 -0.1694395 -0.10033185 -0.017975261 0.11029084 0.08851818 0.0011901975 -0.06368502
-0.05176702 -0.05741559 -0.14758267 0.016818719 0.086906716 -0.006693302 -0.044205062 -0.006188241
0.04871465 -0.03100669 0.16318038 0.15204772 -0.0078708 0.07680829 -0.09970082 -0.0048577404
-0.095871 -0.10028532 -0.0025933897 0.041023042 0.15152858 0.1167388 0.015359201 0.03402948
-0.09064165 -0.025499905 0.037488885 0.043120544 -0.11303786 -0.113100566 -0.04028972 -0.038828768
0.029016936 0.042510245 0.004877863 -0.0079387585 -0.05876249 0.077114016 -0.080097795 -0.10024813
-0.018200478 0.07553111 -0.11038398 -0.10546313 0.11613354 0.14224558 -0.032644436 -0.10741772
-0.14040174 0.06614577 0.071708016 -0.06163109 0.15186702 0.1362156 -0.035259772 -0.008173479
-0.055563025 0.12871458 0.06452339 0.029170793 -0.0995081 -0.1336398 -0.08153862 0.0009002271
0.047460746 -0.0603819 -0.0034547618 0.037765294 0.21513599 -0.019479329 0.0008372365 -0.082010165
0.07295992 0.05431163 0.02042385 0.08020244 0.05650319 0.0598356 0.019890863 0.023301689
0.13759817 0.12972139 -0.010801692 0.025628023 -0.0753886 0.1631961 0.053545047 0.053053077
0.06026429 0.1185297 0.0142005 0.07208887 -0.058936413 -0.014825991 0.025111228 -0.017069489
0.03775082 -0.076582916 0.11124585 0.04712162 0.13308851 0.0068246927 0.020358333 -0.073797
-0.021567956 0.014418291 -0.025251612 0.069460526 0.29987878 0.015124317 0.2919365 0.016467083
0.18710923 0.096958466 0.008854649 -0.0147447605 0.06613103 0.18172501 -0.06335853 0.02950092
0.27559122 0.16774797 0.14918898 0.05727444 -0.030362576 0.0053401473 0.047124095 -0.034119535
-0.13659339 0.17304514 -0.13218074 0.22905095 -0.05644145 -0.03394089 -0.114019275 0.09453743
00000000: daad 443d a875 343d 83a6 9ebd df15 08be
00000010: 37c4 0abe bbbb 0e3d 83dd 6bbd b693 bf3d
00000020: b80c 003d edba 443d 32ed a3bd 7a18 aebd
00000030: a83d 28bd 0ab3 6bbd 6b97 85bc 2a1e 8dbd
00000040: a1b6 003b a7a7 88bb cae3 883d c11b c9bd
00000050: 55ce aa3d 3685 963d a829 3f3d 0355 3bbb
00000060: bfc4 c8bd 8412 5eb9 c9bc 7bbb fe87 78bd
00000070: 8a36 b33b 24ac 7dbc 01c8 823b df38 b13d
00000080: 66b8 14bd d0ed 703d 5c7b 703d 9114 c63c
00000090: 8c97 073c 821b d5bd 2bcc c13d fc3c 803d
000000a0: d11c 07bd bca5 17bd 6389 ba3c 976a 09be
000000b0: 6d82 c8bd 7015 b2bd 545c 2fbc dcf9 f53c
000000c0: 92be dbbc cff4 5c3a 9b3f ea3a 01b7 173e
000000d0: 3272 ff3d 8930 663c a598 7f3c b205 8ebd
000000e0: 5996 c4bc abee ac3c 518a 9a3c 0f49 be3d
000000f0: 5364 d4bc ae49 03be 0f15 0b3e ab86 f1bd
00000100: 028d 95bd 5454 2c3d cf5b 4f3d 945c ff3d
00000110: abb2 89bd 746b e33d f81a 9bbd 373b f1bd
00000120: fe2c ee3c 051a c8bd 4045 d4bd 3005 d8bd
00000130: e43d 4fbd c28f c6bd a4d8 f33c 47db e93d
00000140: 403e 3dbd a8eb 49be ab5c dbbd ac1b 033d
00000150: 8d27 1bbd 84a7 acbd f1eb 0f3e f7dc efb9
00000160: b926 f23d d4bd 4ebd 884f 97bd 67f3 4ebd
00000170: d12e 92bd dec3 5ebd b3df 3e3d 7b85 2b3c
00000180: 7832 b9bc 43e5 273d 9e7f 2dbd 080e ecba
00000190: 6647 0abe c597 2cbd 94c2 b2bd 4fd1 89be
000001a0: 9f12 26be 58e1 943d d966 d6bc 2a22 da3d
000001b0: bfed 983c 045f b5bd ad00 c73d bc6c a4bc
000001c0: 2e4a 24be 8c81 2dbe c97a cdbd db40 93bc
000001d0: 2ae0 e13d 0549 b53d 6700 9c3a 4b6d 82bd
000001e0: a809 54bd 9c2c 6bbd e91f 17be 69c7 893c
000001f0: 26fc b13d 7d53 dbbb 5e10 35bd bac6 cabb
00000200: 0389 473d be01 febc c218 273e 66b2 1b3e
00000210: 87f4 00bc aa4d 9d3d f22f ccbd ae2d 9fbb
00000220: 0458 c4bd 6462 cdbd dcf5 29bb c707 283d
00000230: 4f2a 1b3e c114 ef3d 28a5 7b3c 7f62 0b3d
00000240: 54a2 b9bd 2de5 d0bc f28d 193d 2b9f 303d
00000250: 6580 e7bd 45a1 e7bd d506 25bd ea0a 1fbd
00000260: edb4 ed3c 391f 2e3d 7bd6 9f3b 9111 02bc
00000270: f0b0 70bd f4ed 9d3d 500a a4bd e44e cdbd
00000280: 2b19 95bc 0eb0 9a3d ff10 e2bd 0efd d7bd
00000290: 6cd7 ed3d d3a8 113e 2cb6 05bd d2fd dbbd
000002a0: 79c5 0fbe 6f77 873d a7db 923d e270 7cbd
000002b0: 0783 1b3e 1a7c 0b3e 8d6c 10bd 0eea 05bc
000002c0: 0e96 63bd c1cd 033e d724 843d 96f7 ee3c
000002d0: e7ca cbbd dfd8 08be b8fd a6bd 38fd 6b3a
000002e0: 3366 423d 0353 77bd 4969 62bb c8af 1a3d
000002f0: 9c4c 5c3e 1d93 9fbc fe79 5b3a f2f4 a7bd
00000300: 036c 953d df75 5e3d eb4f a73c 2d41 a43d
00000310: e46f 673d 2d16 753d 2af2 a23c 2fe3 be3c
00000320: 89e6 0c3e afd5 043e 94f9 30bc dcf1 d13c
00000330: 5765 9abd e11c 273e 0d52 5b3d 2f4e 593d
00000340: b0d7 763d b3bf f23d 37a9 683c 54a3 933d
00000350: 4f67 71bd b7e8 72bc 10b6 cd3c 50d5 8bbc
00000360: 9ba0 1a3d 81d7 9cbd ddd4 e33d 9a02 413d
00000370: 5b48 083e aca1 df3b 85c6 a63c e222 97bd
00000380: 48af b0bc b23a 6c3c 78dc cebc 5241 8e3d
00000390: b689 993e fccb 773c b378 953e fae5 863c
000003a0: 9099 3f3e 2992 c63d 1713 113c 0294 71bc
000003b0: b56f 873d 1f16 3a3e 1ec2 81bd eaab f13c
000003c0: 4b1a 8d3e 20c6 2b3e ffc4 183e 9a98 6a3d
000003d0: f0ba f8bc 67fc ae3b 3205 413d edc0 0bbd
000003e0: 23df 0bbe bf32 313e 635a 07be 558c 6a3e
000003f0: 262f 67bd 9a05 0bbd f082 e9bd d79c c13d
